…
I1126 20:22:18.197301 15485 net.cpp:257] The NetState phase (0) differed from the phase (1) specified by a rule in layer cifar
I1126 20:22:18.197363 15485 net.cpp:257] The NetState phase (0) differed from the phase (1) specified by a rule in layer accuracy
I1126 20:22:18.197679 15485 net.cpp:42] Initializing net from parameters: 
name: "CIFAR100_quick"
state {
  phase: TRAIN
}
layer {
  name: "cifar"
  type: "HDF5Data"
  top: "data"
  top: "coarse_labels"
  include {
    phase: TRAIN
  }
  hdf5_data_param {
    source: "train.txt"
    batch_size: 100
  }
}
layer {
  name: "conv1"
  type: "Convolution"
  bottom: "data"
  top: "conv1"
  param {
    lr_mult: 1
  }
  param {
    lr_mult: 2
  }
  convolution_param {
    num_output: 32
    pad: 2
    kernel_size: 5
    stride: 1
    weight_filler {
      type: "gaussian"
      std: 0.0001
    }
    bias_filler {
      type: "constant"
    }
  }
}
layer {
  name: "pool1"
  type: "Pooling"
  bottom: "conv1"
  top: "pool1"
  pooling_param {
    pool: MAX
    kernel_size: 3
    stride: 2
  }
}
layer {
  name: "relu1"
  type: "ReLU"
  bottom: "pool1"
  top: "pool1"
}
layer {
  name: "conv2"
  type: "Convolution"
  bottom: "pool1"
  top: "conv2"
  param {
    lr_mult: 1
  }
  param {
    lr_mult: 2
  }
  convolution_param {
    num_output: 32
    pad: 2
    kernel_size: 5
    stride: 1
    weight_filler {
      type: "gaussian"
      std: 0.01
    }
    bias_filler {
      type: "constant"
    }
  }
}
layer {
  name: "relu2"
  type: "ReLU"
  bottom: "conv2"
  top: "conv2"
}
layer {
  name: "pool2"
  type: "Pooling"
  bottom: "conv2"
  top: "pool2"
  pooling_param {
    pool: AVE
    kernel_size: 3
    stride: 2
  }
}
layer {
  name: "conv3"
  type: "Convolution"
  bottom: "pool2"
  top: "conv3"
  param {
    lr_mult: 1
  }
  param {
    lr_mult: 2
  }
  convolution_param {
    num_output: 64
    pad: 2
    kernel_size: 5
    stride: 1
    weight_filler {
      type: "gaussian"
      std: 0.01
    }
    bias_filler {
      type: "constant"
    }
  }
}
layer {
  name: "relu3"
  type: "ReLU"
  bottom: "conv3"
  top: "conv3"
}
layer {
  name: "pool3"
  type: "Pooling"
  bottom: "conv3"
  top: "pool3"
  pooling_param {
    pool: AVE
    kernel_size: 3
    stride: 2
  }
}
layer {
  name: "ip1"
  type: "InnerProduct"
  bottom: "pool3"
  top: "ip1"
  param {
    lr_mult: 1
  }
  param {
    lr_mult: 2
  }
  inner_product_param {
    num_output: 64
    weight_filler {
      type: "gaussian"
      std: 0.1
    }
    bias_filler {
      type: "constant"
    }
  }
}
layer {
  name: "ip2"
  type: "InnerProduct"
  bottom: "ip1"
  top: "ip2"
  param {
    lr_mult: 1
  }
  param {
    lr_mult: 2
  }
  inner_product_param {
    num_output: 20
    weight_filler {
      type: "gaussian"
      std: 0.1
    }
    bias_filler {
      type: "constant"
    }
  }
}
layer {
  name: "loss"
  type: "SoftmaxWithLoss"
  bottom: "ip2"
  bottom: "coarse_labels"
  top: "loss"
}
I1126 20:22:18.197882 15485 layer_factory.hpp:74] Creating layer cifar
I1126 20:22:18.197911 15485 net.cpp:84] Creating Layer cifar
I1126 20:22:18.197919 15485 net.cpp:338] cifar -> data
I1126 20:22:18.197948 15485 net.cpp:338] cifar -> coarse_labels
I1126 20:22:18.197958 15485 net.cpp:113] Setting up cifar
I1126 20:22:18.197964 15485 hdf5_data_layer.cpp:80] Loading list of HDF5 filenames from: train.txt
I1126 20:22:18.199978 15485 hdf5_data_layer.cpp:94] Number of HDF5 files: 1
I1126 20:22:18.916157 15485 net.cpp:120] Top shape: 100 3 32 32 (307200)
I1126 20:22:18.916182 15485 net.cpp:120] Top shape: 100 1 (100)
I1126 20:22:18.916193 15485 layer_factory.hpp:74] Creating layer conv1
I1126 20:22:18.916235 15485 net.cpp:84] Creating Layer conv1
I1126 20:22:18.916242 15485 net.cpp:380] conv1 <- data
I1126 20:22:18.916255 15485 net.cpp:338] conv1 -> conv1
I1126 20:22:18.916273 15485 net.cpp:113] Setting up conv1
I1126 20:22:18.916738 15485 net.cpp:120] Top shape: 100 32 32 32 (3276800)
I1126 20:22:18.916757 15485 layer_factory.hpp:74] Creating layer pool1
I1126 20:22:18.916774 15485 net.cpp:84] Creating Layer pool1
I1126 20:22:18.916777 15485 net.cpp:380] pool1 <- conv1
I1126 20:22:18.916785 15485 net.cpp:338] pool1 -> pool1
I1126 20:22:18.916793 15485 net.cpp:113] Setting up pool1
I1126 20:22:18.916808 15485 net.cpp:120] Top shape: 100 32 16 16 (819200)
I1126 20:22:18.916815 15485 layer_factory.hpp:74] Creating layer relu1
I1126 20:22:18.916822 15485 net.cpp:84] Creating Layer relu1
I1126 20:22:18.916826 15485 net.cpp:380] relu1 <- pool1
I1126 20:22:18.916832 15485 net.cpp:327] relu1 -> pool1 (in-place)
I1126 20:22:18.916838 15485 net.cpp:113] Setting up relu1
I1126 20:22:18.916846 15485 net.cpp:120] Top shape: 100 32 16 16 (819200)
I1126 20:22:18.916851 15485 layer_factory.hpp:74] Creating layer conv2
I1126 20:22:18.916858 15485 net.cpp:84] Creating Layer conv2
I1126 20:22:18.916862 15485 net.cpp:380] conv2 <- pool1
I1126 20:22:18.916869 15485 net.cpp:338] conv2 -> conv2
I1126 20:22:18.916877 15485 net.cpp:113] Setting up conv2
I1126 20:22:18.917841 15485 net.cpp:120] Top shape: 100 32 16 16 (819200)
I1126 20:22:18.917855 15485 layer_factory.hpp:74] Creating layer relu2
I1126 20:22:18.917865 15485 net.cpp:84] Creating Layer relu2
I1126 20:22:18.917870 15485 net.cpp:380] relu2 <- conv2
I1126 20:22:18.917876 15485 net.cpp:327] relu2 -> conv2 (in-place)
I1126 20:22:18.917881 15485 net.cpp:113] Setting up relu2
I1126 20:22:18.917888 15485 net.cpp:120] Top shape: 100 32 16 16 (819200)
I1126 20:22:18.917892 15485 layer_factory.hpp:74] Creating layer pool2
I1126 20:22:18.917899 15485 net.cpp:84] Creating Layer pool2
I1126 20:22:18.917903 15485 net.cpp:380] pool2 <- conv2
I1126 20:22:18.917909 15485 net.cpp:338] pool2 -> pool2
I1126 20:22:18.917917 15485 net.cpp:113] Setting up pool2
I1126 20:22:18.917924 15485 net.cpp:120] Top shape: 100 32 8 8 (204800)
I1126 20:22:18.917929 15485 layer_factory.hpp:74] Creating layer conv3
I1126 20:22:18.917937 15485 net.cpp:84] Creating Layer conv3
I1126 20:22:18.917942 15485 net.cpp:380] conv3 <- pool2
I1126 20:22:18.917948 15485 net.cpp:338] conv3 -> conv3
I1126 20:22:18.917955 15485 net.cpp:113] Setting up conv3
I1126 20:22:18.919828 15485 net.cpp:120] Top shape: 100 64 8 8 (409600)
I1126 20:22:18.919843 15485 layer_factory.hpp:74] Creating layer relu3
I1126 20:22:18.919854 15485 net.cpp:84] Creating Layer relu3
I1126 20:22:18.919859 15485 net.cpp:380] relu3 <- conv3
I1126 20:22:18.919865 15485 net.cpp:327] relu3 -> conv3 (in-place)
I1126 20:22:18.919872 15485 net.cpp:113] Setting up relu3
I1126 20:22:18.919878 15485 net.cpp:120] Top shape: 100 64 8 8 (409600)
I1126 20:22:18.919883 15485 layer_factory.hpp:74] Creating layer pool3
I1126 20:22:18.919889 15485 net.cpp:84] Creating Layer pool3
I1126 20:22:18.919893 15485 net.cpp:380] pool3 <- conv3
I1126 20:22:18.919900 15485 net.cpp:338] pool3 -> pool3
I1126 20:22:18.919908 15485 net.cpp:113] Setting up pool3
I1126 20:22:18.919915 15485 net.cpp:120] Top shape: 100 64 4 4 (102400)
I1126 20:22:18.919919 15485 layer_factory.hpp:74] Creating layer ip1
I1126 20:22:18.919930 15485 net.cpp:84] Creating Layer ip1
I1126 20:22:18.919934 15485 net.cpp:380] ip1 <- pool3
I1126 20:22:18.919941 15485 net.cpp:338] ip1 -> ip1
I1126 20:22:18.919952 15485 net.cpp:113] Setting up ip1
I1126 20:22:18.922241 15485 net.cpp:120] Top shape: 100 64 (6400)
I1126 20:22:18.922256 15485 layer_factory.hpp:74] Creating layer ip2
I1126 20:22:18.922266 15485 net.cpp:84] Creating Layer ip2
I1126 20:22:18.922271 15485 net.cpp:380] ip2 <- ip1
I1126 20:22:18.922279 15485 net.cpp:338] ip2 -> ip2
I1126 20:22:18.922288 15485 net.cpp:113] Setting up ip2
I1126 20:22:18.922353 15485 net.cpp:120] Top shape: 100 20 (2000)
I1126 20:22:18.922379 15485 layer_factory.hpp:74] Creating layer loss
I1126 20:22:18.922392 15485 net.cpp:84] Creating Layer loss
I1126 20:22:18.922397 15485 net.cpp:380] loss <- ip2
I1126 20:22:18.922404 15485 net.cpp:380] loss <- coarse_labels
I1126 20:22:18.922411 15485 net.cpp:338] loss -> loss
I1126 20:22:18.922420 15485 net.cpp:113] Setting up loss
I1126 20:22:18.922430 15485 layer_factory.hpp:74] Creating layer loss
…
I1126 20:22:18.924546 15485 solver.cpp:154] Creating test net (#0) specified by net file: network/cifar100_quick_train_test.prototxt
I1126 20:22:18.924649 15485 net.cpp:257] The NetState phase (1) differed from the phase (0) specified by a rule in layer cifar
I1126 20:22:18.924815 15485 net.cpp:42] Initializing net from parameters: 
name: "CIFAR100_quick"
state {
  phase: TEST
}
layer {
  name: "cifar"
  type: "HDF5Data"
  top: "data"
  top: "coarse_labels"
  include {
    phase: TEST
  }
  hdf5_data_param {
    source: "test.txt"
    batch_size: 100
  }
}
layer {
  name: "conv1"
  type: "Convolution"
  bottom: "data"
  top: "conv1"
  param {
    lr_mult: 1
  }
  param {
    lr_mult: 2
  }
  convolution_param {
    num_output: 32
    pad: 2
    kernel_size: 5
    stride: 1
    weight_filler {
      type: "gaussian"
      std: 0.0001
    }
    bias_filler {
      type: "constant"
    }
  }
}
layer {
  name: "pool1"
  type: "Pooling"
  bottom: "conv1"
  top: "pool1"
  pooling_param {
    pool: MAX
    kernel_size: 3
    stride: 2
  }
}
layer {
  name: "relu1"
  type: "ReLU"
  bottom: "pool1"
  top: "pool1"
}
layer {
  name: "conv2"
  type: "Convolution"
  bottom: "pool1"
  top: "conv2"
  param {
    lr_mult: 1
  }
  param {
    lr_mult: 2
  }
  convolution_param {
    num_output: 32
    pad: 2
    kernel_size: 5
    stride: 1
    weight_filler {
      type: "gaussian"
      std: 0.01
    }
    bias_filler {
      type: "constant"
    }
  }
}
layer {
  name: "relu2"
  type: "ReLU"
  bottom: "conv2"
  top: "conv2"
}
layer {
  name: "pool2"
  type: "Pooling"
  bottom: "conv2"
  top: "pool2"
  pooling_param {
    pool: AVE
    kernel_size: 3
    stride: 2
  }
}
layer {
  name: "conv3"
  type: "Convolution"
  bottom: "pool2"
  top: "conv3"
  param {
    lr_mult: 1
  }
  param {
    lr_mult: 2
  }
  convolution_param {
    num_output: 64
    pad: 2
    kernel_size: 5
    stride: 1
    weight_filler {
      type: "gaussian"
      std: 0.01
    }
    bias_filler {
      type: "constant"
    }
  }
}
layer {
  name: "relu3"
  type: "ReLU"
  bottom: "conv3"
  top: "conv3"
}
layer {
  name: "pool3"
  type: "Pooling"
  bottom: "conv3"
  top: "pool3"
  pooling_param {
    pool: AVE
    kernel_size: 3
    stride: 2
  }
}
layer {
  name: "ip1"
  type: "InnerProduct"
  bottom: "pool3"
  top: "ip1"
  param {
    lr_mult: 1
  }
  param {
    lr_mult: 2
  }
  inner_product_param {
    num_output: 64
    weight_filler {
      type: "gaussian"
      std: 0.1
    }
    bias_filler {
      type: "constant"
    }
  }
}
layer {
  name: "ip2"
  type: "InnerProduct"
  bottom: "ip1"
  top: "ip2"
  param {
    lr_mult: 1
  }
  param {
    lr_mult: 2
  }
  inner_product_param {
    num_output: 20
    weight_filler {
      type: "gaussian"
      std: 0.1
    }
    bias_filler {
      type: "constant"
    }
  }
}
layer {
  name: "accuracy"
  type: "Accuracy"
  bottom: "ip2"
  bottom: "coarse_labels"
  top: "accuracy"
  include {
    phase: TEST
  }
}
layer {
  name: "loss"
  type: "SoftmaxWithLoss"
  bottom: "ip2"
  bottom: "coarse_labels"
  top: "loss"
}
I1126 20:22:18.924934 15485 layer_factory.hpp:74] Creating layer cifar
I1126 20:22:18.924945 15485 net.cpp:84] Creating Layer cifar
I1126 20:22:18.924952 15485 net.cpp:338] cifar -> data
I1126 20:22:18.924962 15485 net.cpp:338] cifar -> coarse_labels
I1126 20:22:18.924971 15485 net.cpp:113] Setting up cifar
I1126 20:22:18.924976 15485 hdf5_data_layer.cpp:80] Loading list of HDF5 filenames from: test.txt
I1126 20:22:18.926806 15485 hdf5_data_layer.cpp:94] Number of HDF5 files: 1
I1126 20:22:19.102867 15485 net.cpp:120] Top shape: 100 3 32 32 (307200)
I1126 20:22:19.102893 15485 net.cpp:120] Top shape: 100 1 (100)
I1126 20:22:19.102901 15485 layer_factory.hpp:74] Creating layer coarse_labels_cifar_1_split
I1126 20:22:19.102917 15485 net.cpp:84] Creating Layer coarse_labels_cifar_1_split
I1126 20:22:19.102922 15485 net.cpp:380] coarse_labels_cifar_1_split <- coarse_labels
I1126 20:22:19.102931 15485 net.cpp:338] coarse_labels_cifar_1_split -> coarse_labels_cifar_1_split_0
I1126 20:22:19.102942 15485 net.cpp:338] coarse_labels_cifar_1_split -> coarse_labels_cifar_1_split_1
I1126 20:22:19.102948 15485 net.cpp:113] Setting up coarse_labels_cifar_1_split
I1126 20:22:19.102957 15485 net.cpp:120] Top shape: 100 1 (100)
I1126 20:22:19.102962 15485 net.cpp:120] Top shape: 100 1 (100)
I1126 20:22:19.102965 15485 layer_factory.hpp:74] Creating layer conv1
I1126 20:22:19.102975 15485 net.cpp:84] Creating Layer conv1
I1126 20:22:19.102979 15485 net.cpp:380] conv1 <- data
I1126 20:22:19.102985 15485 net.cpp:338] conv1 -> conv1
I1126 20:22:19.102998 15485 net.cpp:113] Setting up conv1
I1126 20:22:19.103109 15485 net.cpp:120] Top shape: 100 32 32 32 (3276800)
I1126 20:22:19.103127 15485 layer_factory.hpp:74] Creating layer pool1
I1126 20:22:19.103134 15485 net.cpp:84] Creating Layer pool1
I1126 20:22:19.103138 15485 net.cpp:380] pool1 <- conv1
I1126 20:22:19.103148 15485 net.cpp:338] pool1 -> pool1
I1126 20:22:19.103157 15485 net.cpp:113] Setting up pool1
I1126 20:22:19.103166 15485 net.cpp:120] Top shape: 100 32 16 16 (819200)
I1126 20:22:19.103171 15485 layer_factory.hpp:74] Creating layer relu1
I1126 20:22:19.103178 15485 net.cpp:84] Creating Layer relu1
I1126 20:22:19.103183 15485 net.cpp:380] relu1 <- pool1
I1126 20:22:19.103188 15485 net.cpp:327] relu1 -> pool1 (in-place)
I1126 20:22:19.103194 15485 net.cpp:113] Setting up relu1
I1126 20:22:19.103204 15485 net.cpp:120] Top shape: 100 32 16 16 (819200)
I1126 20:22:19.103209 15485 layer_factory.hpp:74] Creating layer conv2
I1126 20:22:19.103215 15485 net.cpp:84] Creating Layer conv2
I1126 20:22:19.103219 15485 net.cpp:380] conv2 <- pool1
I1126 20:22:19.103225 15485 net.cpp:338] conv2 -> conv2
I1126 20:22:19.103235 15485 net.cpp:113] Setting up conv2
I1126 20:22:19.104070 15485 net.cpp:120] Top shape: 100 32 16 16 (819200)
I1126 20:22:19.104081 15485 layer_factory.hpp:74] Creating layer relu2
I1126 20:22:19.104091 15485 net.cpp:84] Creating Layer relu2
I1126 20:22:19.104095 15485 net.cpp:380] relu2 <- conv2
I1126 20:22:19.104101 15485 net.cpp:327] relu2 -> conv2 (in-place)
I1126 20:22:19.104106 15485 net.cpp:113] Setting up relu2
I1126 20:22:19.104112 15485 net.cpp:120] Top shape: 100 32 16 16 (819200)
I1126 20:22:19.104116 15485 layer_factory.hpp:74] Creating layer pool2
I1126 20:22:19.104121 15485 net.cpp:84] Creating Layer pool2
I1126 20:22:19.104156 15485 net.cpp:380] pool2 <- conv2
I1126 20:22:19.104167 15485 net.cpp:338] pool2 -> pool2
I1126 20:22:19.104176 15485 net.cpp:113] Setting up pool2
I1126 20:22:19.104183 15485 net.cpp:120] Top shape: 100 32 8 8 (204800)
I1126 20:22:19.104188 15485 layer_factory.hpp:74] Creating layer conv3
I1126 20:22:19.104197 15485 net.cpp:84] Creating Layer conv3
I1126 20:22:19.104202 15485 net.cpp:380] conv3 <- pool2
I1126 20:22:19.104208 15485 net.cpp:338] conv3 -> conv3
I1126 20:22:19.104218 15485 net.cpp:113] Setting up conv3
I1126 20:22:19.105830 15485 net.cpp:120] Top shape: 100 64 8 8 (409600)
I1126 20:22:19.105844 15485 layer_factory.hpp:74] Creating layer relu3
I1126 20:22:19.105854 15485 net.cpp:84] Creating Layer relu3
I1126 20:22:19.105857 15485 net.cpp:380] relu3 <- conv3
I1126 20:22:19.105864 15485 net.cpp:327] relu3 -> conv3 (in-place)
I1126 20:22:19.105870 15485 net.cpp:113] Setting up relu3
I1126 20:22:19.105875 15485 net.cpp:120] Top shape: 100 64 8 8 (409600)
I1126 20:22:19.105878 15485 layer_factory.hpp:74] Creating layer pool3
I1126 20:22:19.105885 15485 net.cpp:84] Creating Layer pool3
I1126 20:22:19.105887 15485 net.cpp:380] pool3 <- conv3
I1126 20:22:19.105893 15485 net.cpp:338] pool3 -> pool3
I1126 20:22:19.105900 15485 net.cpp:113] Setting up pool3
I1126 20:22:19.105906 15485 net.cpp:120] Top shape: 100 64 4 4 (102400)
I1126 20:22:19.105911 15485 layer_factory.hpp:74] Creating layer ip1
I1126 20:22:19.105918 15485 net.cpp:84] Creating Layer ip1
I1126 20:22:19.105926 15485 net.cpp:380] ip1 <- pool3
I1126 20:22:19.105932 15485 net.cpp:338] ip1 -> ip1
I1126 20:22:19.105940 15485 net.cpp:113] Setting up ip1
I1126 20:22:19.108000 15485 net.cpp:120] Top shape: 100 64 (6400)
I1126 20:22:19.108011 15485 layer_factory.hpp:74] Creating layer ip2
I1126 20:22:19.108022 15485 net.cpp:84] Creating Layer ip2
I1126 20:22:19.108026 15485 net.cpp:380] ip2 <- ip1
I1126 20:22:19.108033 15485 net.cpp:338] ip2 -> ip2
I1126 20:22:19.108041 15485 net.cpp:113] Setting up ip2
I1126 20:22:19.108098 15485 net.cpp:120] Top shape: 100 20 (2000)
I1126 20:22:19.108108 15485 layer_factory.hpp:74] Creating layer ip2_ip2_0_split
I1126 20:22:19.108114 15485 net.cpp:84] Creating Layer ip2_ip2_0_split
I1126 20:22:19.108119 15485 net.cpp:380] ip2_ip2_0_split <- ip2
I1126 20:22:19.108125 15485 net.cpp:338] ip2_ip2_0_split -> ip2_ip2_0_split_0
I1126 20:22:19.108132 15485 net.cpp:338] ip2_ip2_0_split -> ip2_ip2_0_split_1
I1126 20:22:19.108139 15485 net.cpp:113] Setting up ip2_ip2_0_split
I1126 20:22:19.108146 15485 net.cpp:120] Top shape: 100 20 (2000)
I1126 20:22:19.108157 15485 net.cpp:120] Top shape: 100 20 (2000)
I1126 20:22:19.108162 15485 layer_factory.hpp:74] Creating layer accuracy
I1126 20:22:19.108173 15485 net.cpp:84] Creating Layer accuracy
I1126 20:22:19.108180 15485 net.cpp:380] accuracy <- ip2_ip2_0_split_0
I1126 20:22:19.108186 15485 net.cpp:380] accuracy <- coarse_labels_cifar_1_split_0
I1126 20:22:19.108191 15485 net.cpp:338] accuracy -> accuracy
I1126 20:22:19.108199 15485 net.cpp:113] Setting up accuracy
…
